legged_gym/resources/models/policy_1.pt (torch, 833992 bytes, 8 tensors)

weight f4 [512, 77]
-0.28495565 0.027152212 0.2854791 -0.2707617 0.5882296 0.20359711 -0.09493876 -0.32795334
0.17253521 0.33346358 -0.1415198 -0.37719813 -0.34946463 -0.18959497 -0.11038873 0.044192046
-0.0024997126 0.165133 -0.039589934 -0.15748996 0.03594098 0.114887744 0.53238994 -0.28856033
-0.74420696 0.40404168 -0.102972604 -0.6543068 0.112690814 0.27878982 0.03579025 0.053755466
-0.12513277 0.0005976313 -0.02283023 0.04426366 -0.09498253 -0.061296806 0.03789584 -0.01916346
-0.050254114 0.0018389153 0.0030235457 0.02611963 0.011155527 -0.17450777 0.07907281 0.09409825
-0.08942649 0.20415302 -0.15847592 0.0062498827 0.11803795 0.00672622 0.044544708 0.15457475
0.10180703 0.15793958 0.042208534 0.018458344 0.061944414 0.01016044 0.08922147 0.087114386
0.26584822 -0.1528094 -0.1575164 -0.09219068 0.054415748 -0.30056843 0.08880637 -0.066908225
-0.015539546 0.15893206 0.06980533 0.012788417 0.14773983 -0.028542124 0.25639445 -0.04180224
-0.46729136 -0.119447485 0.025375023 0.091928765 0.067289434 0.21870014 0.15497863 0.049223647
-0.06161104 -0.21943074 -0.032805353 0.18418722 0.00773314 0.19291909 0.23821712 -0.2168925
0.30061537 -0.4514238 0.11232541 -0.37092817 -0.096543595 0.018865718 -0.019472081 0.22352481
-0.08076698 -0.043533053 0.021019403 -0.058339085 0.034826346 -1.0177898 0.020461341 -0.05493791
-0.01542232 0.0732044 0.0064326613 -0.06434491 0.004096382 -0.01794482 -0.057585627 -0.022268074
-0.01623059 0.026116421 -0.002716744 0.14659187 0.014106571 0.04593467 0.05395834 -0.27367786
0.21019249 -0.18386273 -0.13298503 0.18500547 0.06709473 -0.22872737 -0.13400848 -0.16633269
-0.027100071 -0.022881983 -0.1049781 0.21892764 0.2438473 0.1288424 0.044156943 -0.07157382
-0.057732012 -0.047313582 -0.11216767 0.024858685 0.10178581 -0.036062043 0.035142668 -0.2898315
-0.094649725 -0.20020327 -0.19972198 0.045020096 1.0734452 0.05404332 1.1992451 -0.053531624
-0.10314401 -0.039043732 0.03548951 -0.25949585 0.008130172 0.1490988 -0.045795757 0.45711574
0.20723408 -0.7490316 -0.1191293 0.1344928 0.28473312 -0.030351274 -0.12862518 0.11343501
-0.2909718 0.150612 -0.24267447 0.15970956 -0.06377079 -0.63268507 -0.5432468 -0.11721533
-0.25897732 0.13120681 -0.17648493 -0.014518526 0.00052837416 -0.049040206 0.037354026 0.017430859
0.007253721 -0.01405403 0.028596632 -0.03689182 -0.073223725 0.010880675 0.026255473 0.0124829225
0.041547332 0.054776076 -0.09964323 0.0022435773 0.14075667 -0.071539536 -0.08777127 0.21359561
-0.24562043 -0.115188435 0.12111642 -0.0070245247 0.048385378 -0.1851186 -0.09018474 0.06115968
0.02898574 -0.14946584 -0.09761395 -0.15360597 -0.01363985 -0.21993046 -0.13400272 0.07970036
0.07196499 0.20897315 -0.07673067 -0.18439922 0.2336002 0.07549926 0.30803302 0.23830877
0.15680307 0.19096655 -0.6854449 0.51322424 0.16892058 0.17933565 0.14751923 -0.8323366
0.09721594 -0.31277832 0.063005455 -0.3944358 -0.4158859 0.4219804 0.6139958 0.79144454
0.32237062 -0.48808378 -0.021189315 0.18763462 0.32528868 -0.07277826 -0.117221266 -0.0054323524
00000000: b5e5 91be 516e de3c 512a 923e 47a1 8abe
00000010: 3796 163f c37b 503e 416f c2bd 80e9 a7be
00000020: 12ad 303e bdbb aa3e 91ea 10be 1d20 c1be
00000030: 07ed b2be 2f25 42be 7d13 e2bd b802 353d
00000040: 38d2 23bb a018 293e 0e29 22bd 0c45 21be
00000050: d936 133d 444a eb3d b54a 083f 2ebe 93be
00000060: 5984 3ebf 8dde ce3e 4de3 d2bd a780 27bf
00000070: 71ca e63d 8abd 8e3e cc98 123d b12e 5c3d
00000080: ce22 00be 5caa 1c3a 7606 bbbc d04d 353d
00000090: 3386 c2bd 5c12 7bbd ab38 1b3d b0fc 9cbc
000000a0: 42d7 4dbd c207 f13a ae26 463b d6f8 d53c
000000b0: acc5 363c 2ab2 32be edf0 a13d 95b6 c03d
000000c0: 3c25 b7bd 7d0d 513e 8347 22be d1cb cc3b
000000d0: e1bd f13d 9f67 dc3b 8374 363d d848 1e3e
000000e0: 3480 d03d eaba 213e dbe2 2c3d f435 973c
000000f0: 6db9 7d3d f977 263c bfb9 b63d 0769 b23d
00000100: 421d 883e 117a 1cbe fb4b 21be 78ce bcbd
00000110: 0ce3 5e3d 1be4 99be 1de0 b53d 2e07 89bd
00000120: 9499 7ebc 16bf 223e 19f6 8e3d 8286 513c
00000130: 1c49 173e 2cd1 e9bc 2246 833e d338 2bbd
00000140: d040 efbe e2a0 f4bd 48df cf3c 2645 bc3d
00000150: 0bcf 893d eef2 5f3e b8b2 1e3e bc9e 493d
00000160: dc5b 7cbd 74b2 60be e85e 06bd 939b 3c3e
00000170: 4866 fd3b 958c 453e 30ef 733e 1119 5ebe
00000180: 42ea 993e 0521 e7be dd0a e63d 4cea bdbe
00000190: a6b8 c5bd 478c 9a3c ea83 9fbc b0e3 643e
000001a0: 2969 a5bd b74f 32bd e230 ac3c f7f4 6ebd
000001b0: 12a6 0e3d f046 82bf 8b9e a73c 9306 61bd
000001c0: e6ad 7cbc 30ec 953d 13c9 d23b 44c7 83bd
000001d0: f13a 863b 0401 93bc e8de 6bbd 896b b6bc
000001e0: 04f6 84bc 1bf2 d53c 670b 32bb 2e1c 163e
000001f0: 3f1f 673c fe25 3c3d 6c03 5d3d 811f 8cbe
00000200: b33c 573e 8346 3cbe 3a2d 08be 1372 3d3e
00000210: f668 893d 8237 6abe 8539 09be 1e53 2abe
00000220: f800 debc ff72 bbbc c2fe d6bd 912e 603e
00000230: 1bb3 793e 43ef 033e e9dd 343d 4c95 92bd
00000240: 6778 6cbd e3cb 41bd 2ab8 e5bd 71a4 cb3c
00000250: 1475 d03d cbb5 13bd c2f1 0f3d cb64 94be
00000260: b7d7 c1bd 1602 4dbe eb83 4cbe fe66 383d
00000270: a766 893f 875c 5d3d dd80 993f fa43 5bbd
00000280: 2b3d d3bd 52ec 1fbd 735d 113d a4dc 84be
00000290: 6a34 053c 5bad 183e 5594 3bbd 130b ea3e
000002a0: 2c35 543e 89c0 3fbf 10fa f3bd 7bb8 093e
000002b0: 8ac8 913e 3ca3 f8bc 52b6 03be 9d50 e83d
000002c0: 41fa 94be 083a 1a3e a87f 78be e78a 233e
000002d0: 439a 82bd a6f7 21bf 3912 0bbf 970e f0bd
000002e0: ad98 84be 145b 063e 77b8 34be 1ddf 6dbc
000002f0: 9782 0a3a 62de 48bd 8900 193d 29cb 8e3c
00000300: 9fb0 ed3b e042 66bc 7c43 ea3c e11b 17bd
00000310: 52f6 95bd dc44 323c b815 d73c 2c85 4c3c
00000320: 892d 2a3d e15c 603d c011 ccbd fb08 133b
00000330: 8422 103e 5283 92bd 6cc1 b3bd cfb8 5a3e
00000340: ec83 7bbe eae7 ebbd e30b f83d fc2d e6bb
00000350: bf2f 463d bb8f 3dbe c7b2 b8bd 9382 7a3d
00000360: 8173 ed3c 930d 19be d3e9 c7bd e24a 1dbe
00000370: ad79 5fbc 7335 61be 0238 09be f139 a33d
00000380: 6162 933d 0ffd 553e f824 9dbd 26d3 3cbe
00000390: e434 6f3e 5b9f 9a3d 81b6 9d3e 3707 743e
000003a0: fc90 203e bc8c 433e 5179 2fbf aa62 033f
000003b0: 84f9 2c3e c4a3 373e 480f 173e 0314 55bf
000003c0: 2719 c73d 7b24 a0be 0109 813d 7df3 c9be
000003d0: ffee d4be d10d d83e d42e 1d3f 1c9c 4a3f
000003e0: c30d a53e 1ee6 f9be 3795 adbc 4a23 403e
000003f0: 3d8c a63e c50c 95bd b411 f0bd e001 b2bb

bias f4 [512]
0.16720366 -0.15797104 -0.1113169 -0.05819507 -0.15750737 0.06251289 -0.28492948 -0.24429408
0.078477755 0.033322863 -0.10026116 -0.1833585 -0.12648723 -0.16801256 0.23578869 -0.07825532
-0.09878642 -0.032768935 -0.015782958 -0.13876703 -0.100749336 0.4370779 -0.30469418 -0.11129375
0.0029835685 -0.0771624 -0.16468659 0.15789042 0.07577682 -0.047035404 -0.3913626 -0.4404472
-0.046066947 0.18201038 0.02925927 -0.18769474 -0.15703863 -0.19444694 -0.05483749 -0.122860156
-0.12044425 -0.2374063 -0.43648344 0.015024404 -0.17140459 -0.29975536 -0.18640822 0.018463429
-0.14307798 0.08299745 0.054634996 -0.10783754 -0.42366043 -0.20827088 0.113644354 -0.026494041
0.1891424 -0.15868147 -0.3438349 -0.24355228 -0.22575706 -0.09055125 -0.047995575 -0.056934845
0.074582905 0.0013375746 0.23617595 -0.28921518 0.24002019 0.13270804 -0.13456482 -0.17254029
-0.43888164 -0.40598175 -0.016482003 -0.16533488 -0.13720298 -0.19299144 -0.06822274 -0.12857634
-0.16834836 -0.06350729 -0.00048549267 -0.16238338 -0.098581195 -0.124984264 -0.41168454 -0.4563468
-0.27721104 -0.06611622 -0.09828136 -0.025247755 0.21579793 -0.26816756 -0.2694819 -0.06994133
-0.30380434 -0.114492014 0.043046948 -0.3979073 -0.48070565 0.1449425 0.3410639 -0.20840624
-0.39745829 -0.16234168 0.12639222 0.11263108 0.21680379 -0.29753605 -0.34100443 -0.11772142
-0.2706489 -0.17553988 0.007969848 -0.30636835 -0.22363764 -0.2512426 -0.032304913 -0.1031757
-0.22511174 -0.2049152 -0.24014023 -0.013438492 -0.077415064 -0.34666166 0.11880821 -0.19734144
-0.26536605 -0.20805693 -0.17227976 -0.2363742 -0.080280975 -0.2276268 0.07134644 0.2081526
-0.033848274 0.082537204 0.04725036 -0.17135578 0.09592058 0.17835505 -0.34057423 -0.19192475
0.014283933 5.2420804e-05 -0.19284093 -0.29549956 -0.3840594 0.1798106 -0.04496024 -0.037186317
-0.25128594 0.23171523 0.17383307 -0.13763623 -0.17724225 -0.190545 -0.29200178 -0.016004251
-0.16546017 0.092011474 -0.013399819 0.06567575 0.12796478 -0.028823745 -0.13431212 0.053645622
-0.16059093 -0.43456104 -0.31367674 0.016567698 -0.01741824 0.1581633 -0.1687852 -0.09405637
-0.089454934 -0.048123635 -0.23863485 -0.18045181 -0.14921688 -0.07187943 -0.01571688 -0.29815114
-0.058327578 -0.3649587 -0.07022648 -0.0059943367 0.08488047 0.051985215 -0.10312362 -0.06386515
-0.0015297264 0.13558692 0.060218662 -0.42172948 0.06361309 -0.32363045 -0.18237889 0.11721955
-0.22934565 -0.3143836 -0.07377508 -0.08119277 -0.47392985 -0.10973961 0.048574634 0.14853278
-0.39805833 -0.11995128 -0.32616687 -0.51535946 -0.42179787 0.1169535 -0.2682536 -0.007184608
-0.2145498 0.08890116 0.21368337 -0.0965363 0.114776894 -0.27109343 -0.026094818 -0.09580347
0.013841869 -0.19768001 -0.16657938 -0.09298594 -0.3467986 0.13416784 -0.24189821 0.10301204
-0.015388851 0.14847241 0.13643393 -0.044332664 -0.1805351 0.11096517 -0.21337382 -0.24579497
-0.26458377 -0.0110310055 -0.26491228 -0.09438161 0.18109351 -0.10792271 0.06470485 -0.12804814
0.03936947 -0.12110897 -0.22154844 -0.1429961 -0.15982178 0.08389425 0.06566203 -0.29444373
00000000: 7037 2b3e 29c3 21be 1dfa e3bd f45d 6ebd
00000010: 9d49 21be c206 803d 47e2 91be 3a28 7abe
00000020: f2b8 a03d 8e7d 083d b955 cdbd 55c2 3bbe
00000030: de85 01be 7c0b 2cbe 9772 713e 5344 a0bd
00000040: 8950 cabd b838 06bd 434b 81bc f218 0ebe
00000050: ab55 cebd adc8 df3e e000 9cbe faed e3bd
00000060: f987 433b 5207 9ebd 9aa3 28be 07ae 213e
00000070: e130 9b3d 32a8 40bd ae60 c8be 4c82 e1be
00000080: b2b0 3cbd ee60 3a3e 23b1 ef3c 0d33 40be
00000090: bcce 20be 191d 47be 479d 60bd 1b9e fbbd
000000a0: 7aab f6bd a31a 73be c27a dfbe eb28 763c
000000b0: af84 2fbe 8979 99be cce1 3ebe 9e40 973c
000000c0: 0983 12be 91fa a93d f2c8 5f3d eed9 dcbd
000000d0: 05ea d8be f644 55be 5fbe e83d 080a d9bc
000000e0: 8cae 413e 657d 22be 210b b0be c565 79be
000000f0: dc2c 67be ef72 b9bd 0297 44bd 8334 69bd
00000100: ecbe 983d 8e51 af3a 1cd8 713e 0314 94be
00000110: dac7 753e 9ee4 073e 5ccb 09be 67ae 30be
00000120: 18b5 e0be d7dc cfbe 4405 87bc 8c4d 29be
00000130: f07e 0cbe 8c9f 45be 5db8 8bbd 84a9 03be
00000140: 8363 2cbe 1c10 82bd b989 feb9 d447 26be
00000150: f0e4 c9bd c0f7 ffbd 51c8 d2be 4aa6 e9be
00000160: 9bee 8dbe f167 87bd bd47 c9bd 61d4 cebc
00000170: 22fa 5c3e 424d 89be 88f9 89be 663d 8fbd
00000180: 3e8c 9bbe ca7a eabd ff51 303d 81ba cbbe
00000190: 0d1f f6be cf6b 143e ed9f ae3e 7268 55be
000001a0: a77f cbbe e63c 26be f66c 013e 20ab e63d
000001b0: d001 5e3e a556 98be 2298 aebe ee17 f1bd
000001c0: 7e92 8abe bac0 33be f793 023c 50dc 9cbe
000001d0: 4401 65be dfa2 80be 2852 04bd c84d d3bd
000001e0: b183 66be 4ad5 51be 52e7 75be 1f2d 5cbc
000001f0: ca8b 9ebd a37d b1be b851 f33d e013 4abe
00000200: 0fde 87be e00c 55be 1b6a 30be 140c 72be
00000210: 5a6a a4bd 0017 69be 151e 923d f525 553e
00000220: 7da4 0abd 4409 a93d 9889 413d e477 2fbe
00000230: 0272 c43d b5a2 363e bf5f aebe ec87 44be
00000240: 2807 6a3c 69de 5b38 1878 45be b84b 97be
00000250: 6fa3 c4be 4520 383e 3b28 38bd ae50 18bd
00000260: 8da8 80be c246 6d3e 4c01 323e 83f0 0cbe
00000270: fe7e 35be 3a1e 43be 4281 95be 591b 83bc
00000280: 646e 29be 8370 bc3d ea8a 5bbc 0281 863d
00000290: 3309 033e c61f ecbc 1e89 09be 83bb 5b3d
000002a0: f371 24be c97e debe 3d9a a0be fbb8 873c
000002b0: b2b0 8ebc 8ff5 213e 07d6 2cbe a0a0 c0bd
000002c0: 2634 b7bd 4a1d 45bd b25c 74be 5cc8 38be
000002d0: 4fcc 18be 8635 93bd b0c0 80bc 44a7 98be
000002e0: e6e8 6ebd dedb babe e7d2 8fbd 246c c4bb
000002f0: d0d5 ad3d 73ee 543d 7a32 d3bd bbcb 82bd
00000300: 1a81 c8ba 4cd7 0a3e d8a7 763d edec d7be
00000310: 9447 823d e4b2 a5be 88c1 3abe ce10 f03d
00000320: 96d9 6abe e3f6 a0be 6417 97bd 6548 a6bd
00000330: efa6 f2be 29bf e0bd 32f6 463d fa18 183e
00000340: 4dce cbbe 04a9 f5bd 58ff a6be 99ee 03bf
00000350: e4f5 d7be 5185 ef3d 8958 89be dc6c ebbb
00000360: f1b2 5bbe d011 b63d d0cf 5a3e d3b4 c5bd
00000370: 2610 eb3d c2cc 8abe cdc4 d5bc 9c34 c4bd
00000380: 02c9 623c a16c 4abe c993 2abe 6a6f bebd
00000390: 968f b1be 4b63 093e 2ab4 77be faf7 d23d
000003a0: 8521 7cbc 2709 183e 56b5 0b3e 2b96 35bd
000003b0: 31de 38be b541 e33d ab7e 5abe adb1 7bbe
000003c0: 8677 87be 64bb 34bc 95a2 87be 254b c1bd
000003d0: 9470 393e 9506 ddbd fa83 843d 0d1f 03be
000003e0: e241 213d fb07 f8bd 98dd 62be 926d 12be
000003f0: 52a8 23be c0d0 ab3d d079 863d 54c1 96be

weight f4 [256, 512]
0.15428433 0.107704856 0.09183939 0.19117753 0.033919178 0.13815956 -0.14280553 0.18892033
-0.12876913 -0.057425074 -0.32859567 -0.08149439 0.00467133 -0.006696415 0.11309687 0.096075825
0.2788162 -0.107058994 -0.05574771 -0.131377 0.07057381 0.23057327 -0.10432473 0.1493825
-0.022436056 0.16505902 -0.06045696 0.04573689 0.18822436 0.42223546 -0.058735527 0.05957741
-0.18841137 0.042923927 0.13199972 -0.20684132 0.07676246 0.014660187 -0.3451514 0.3015903
0.09372813 0.014321286 0.08374151 -0.0809157 -0.28059274 0.155265 -0.08734758 0.0643437
0.113187976 0.21661979 -0.36049125 -0.39669746 -0.01209159 -0.08203827 0.006010701 0.38999078
-0.013697141 0.0069776457 -0.20417997 0.02930642 -0.04470253 -0.21605067 0.025894612 -0.0746208
-0.13834722 0.26467836 -0.08519625 -0.079228915 -0.024040904 0.041311137 0.17444427 -0.023121022
-0.21681336 -0.09539146 -0.20943858 0.10632367 0.16942231 -0.16446441 -0.25404912 -0.23935978
0.123598084 -0.022819187 0.2556937 0.35766527 0.17574547 -0.10957686 0.3754372 0.065589204
-0.03853185 0.15536627 0.23094775 0.001258602 0.2788117 0.10228828 0.002635764 -0.032490496
-0.1829579 -0.26041144 -0.022411807 -0.10428256 0.02401142 -0.055238288 -0.09071217 -0.13257997
0.2393691 0.015737401 -0.1046181 -0.403989 0.0802119 -0.08567692 -0.031310678 0.030056395
0.053335607 -0.12703425 -0.19815877 -0.3408962 0.024976602 0.21108703 0.16207819 -0.2548378
-0.19606623 0.3009231 0.12005896 0.29673082 -0.019328214 0.106839225 0.015995413 -0.13063824
-0.10077683 0.23796606 0.022068376 -0.076694235 0.0054422664 0.13198267 -0.16012737 0.20216297
0.29356745 0.5206213 -0.03841512 0.038875125 0.036849335 -0.1049455 0.20995182 -0.038553163
-0.06939786 0.29278493 -0.39726263 0.2970155 -0.09088825 0.07707968 -0.061745126 0.0032287408
-0.04249048 -0.07866081 0.19057928 0.27771628 -0.17607754 0.13502173 -0.016201416 0.43229386
0.0903243 -0.085015185 0.07315245 0.021463502 0.22261994 -0.15486614 -0.087765336 -0.19943525
0.25744995 0.101489745 0.077996746 0.009780125 -0.008274329 -0.03712173 -0.22866511 -0.22618736
0.20738122 0.09752973 0.15156925 -0.26541334 -0.13284785 0.2289698 -0.08186459 -0.14426112
0.27731317 -0.17826203 0.027569368 -0.11339609 0.11405349 0.26521283 0.12958816 -0.14283901
-0.1579814 -0.15301253 -0.10808164 -0.066016965 0.05647865 0.032182343 0.17224716 -0.4419503
-0.07402905 0.0101838345 -0.10714516 -0.13287221 0.06867577 -0.10347599 -0.00354584 0.1502483
0.081018366 -0.15289146 0.08096074 -0.02596132 0.040580895 0.027276868 0.1638219 -0.16903794
-0.03471428 -0.013826226 0.25307417 -0.16502777 -0.4128092 0.0877733 0.03900656 -0.32060865
-0.33304882 -0.10947931 -0.07727569 0.050482858 -0.0054403427 -0.00480982 0.028785814 -0.1967029
0.013522452 0.030776886 0.13168733 0.2353011 -0.09056091 0.19150127 -0.048297256 -0.20224525
-0.14878887 -0.19431107 -0.1724081 0.09966959 -0.13962372 0.4179322 0.046266224 0.014978615
0.13172542 -0.11559883 -0.0066762627 -0.14822215 -0.3941608 -0.15030962 -0.40627953 -0.17236665
00000000: b6fc 1d3e 5d94 dc3d 4a16 bc3d 0bc4 433e
00000010: d6ee 0a3d b379 0d3e 9d3b 12be 5574 413e
00000020: 0edc 03be 8e36 6bbd b13d a8be 88e6 a6bd
00000030: f511 993b 9a6d dbbb 559f e73d 67c3 c43d
00000040: ffc0 8e3e bf41 dbbd b657 64bd b187 06be
00000050: 0089 903d 661b 6c3e 34a8 d5bd baf7 183e
00000060: d2cb b7bc 3b05 293e b8a1 77bd 9b56 3b3d
00000070: e3bd 403e 3f2f d83e aa94 70bd 7107 743d
00000080: e9ee 40be 00d1 2f3d ef2a 073e 36ce 53be
00000090: a335 9d3d 4831 703c afb7 b0be 0b6a 9a3e
000000a0: 89f4 bf3d d4a3 6a3c ab80 ab3d 21b7 a5bd
000000b0: daa9 8fbe cafd 1e3e 4ae3 b2bd a1c6 833d
000000c0: 19cf e73d 94d1 5d3e 4f92 b8be ee1b cbbe
000000d0: ce1b 46bc ae03 a8bd 6af5 c43b dfac c73e
000000e0: f969 60bc bca4 e43b 8e14 51be 0414 f03c
000000f0: 001a 37bd 633c 5dbe f020 d43c cad2 98bd
00000100: e5aa 0dbe ec83 873e 5f7b aebd c542 a2bd
00000110: 6ef1 c4bc de35 293d 85a1 323e 4c68 bdbc
00000120: 5204 5ebe 995c c3bd 1177 56be 39c0 d93d
00000130: 0b7d 2d3e 5c69 28be ba12 82be bb1a 75be
00000140: fe20 fd3d 4eef babc 49ea 823e e71f b73e
00000150: 9ff6 333e d569 e0bd 4e39 c03e a253 863d
00000160: 93d3 1dbd 5618 1f3e 917d 6c3e adf7 a43a
00000170: 68c0 8e3e 857c d13d c8bc 2c3b c114 05bd
00000180: 5159 3bbe a654 85be f798 b7bc 1892 d5bd
00000190: 99b3 c43c 8b41 62bd 4dc7 b9bd 0bc3 07be
000001a0: 2c1d 753e b9eb 803c 0442 d6bd a5d7 cebe
000001b0: 2346 a43d 6277 afbd a03f 00bd d438 f63c
000001c0: 7076 5a3d 4415 02be 22ea 4abe f289 aebe
000001d0: bb9b cc3c 3327 583e d3f7 253e 1a7a 82be
000001e0: 96c5 48be 9812 9a3e 79e1 f53d 1aed 973e
000001f0: 3456 9ebc 86ce da3d d008 833c 08c6 05be
00000200: 1564 cebd 60ad 733e bdc8 b43c de11 9dbd
00000210: 0a55 b23b 7726 073e 6ef8 23be cf03 4f3e
00000220: 794e 963e 7047 053f 2c59 1dbd 863b 1f3d
00000230: 54ef 163d abed d6bd 9cfd 563e ece9 1dbd
00000240: 7720 8ebd e8e7 953e 0266 cbbe 6a12 983e
00000250: 9e23 babd f4db 9d3d 75e8 7cbd 4899 533b
00000260: 7f0a 2ebd eb18 a1bd 3727 433e d430 8e3e
00000270: ac4d 34be 2343 0a3e d5b8 84bc 9f55 dd3e
00000280: f2fb b83d 711c aebd f4d0 953d 3ad4 af3c
00000290: 7bf6 633e 3b95 1ebe 50be b3bd c138 4cbe
000002a0: 7bd0 833e dbd9 cf3d c2bc 9f3d d13c 203c
000002b0: 0d91 07bc f50c 18bd 3027 6abe a99d 67be
000002c0: be5b 543e abbd c73d f834 1b3e 42e4 87be
000002d0: 4409 08be 0f77 6a3e 9fa8 a7bd 30b9 13be
000002e0: fefb 8d3e 528a 36be 28d9 e13c 363c e8bd
000002f0: e094 e93d fac9 873e c2b2 043e 6444 12be
00000300: e0c5 21be 51af 1cbe e859 ddbd e733 87bd
00000310: 2856 673d a2d1 033d 8f61 303e 4f47 e2be
00000320: 8b9c 97bd 19da 263c ec6e dbbd a70f 08be
00000330: e2a5 8c3d 38eb d3bd 5361 68bb b1da 193e
00000340: f5ec a53d 948f 1cbe bfce a53d d6ac d4bc
00000350: 2738 263d bd73 df3c eec0 273e 4818 2dbe
00000360: 9030 0ebd 6587 62bc f092 813e 0afd 28be
00000370: ba5b d3be 7dc2 b33d 58c5 1f3d d126 a4be
00000380: 6085 aabe b036 e0bd b842 9ebd 1dc7 4e3d
00000390: e744 b2bb b29b 9dbb 3ad0 eb3c 7c6c 49be
000003a0: 468d 5d3c cf1f fc3c 0bd9 063e c6f2 703e
000003b0: 0078 b9bd e918 443e 58d3 45bd 6119 4fbe
000003c0: 1c5c 18be 7bf9 46be c08b 30be 921f cc3d
000003d0: 85f9 0ebe 36fb d53e a781 3d3d dd68 753c
000003e0: 07e3 063e 14bf ecbd 8dc4 dabb 8cc7 17be
000003f0: 72cf c9be c4ea 19be df03 d0be e280 30be

bias f4 [256]
-0.043420736 -0.046275917 -0.23972805 -0.3246426 -0.17780688 -0.033103947 -0.4892615 -0.17838134
-0.07002245 -0.082405545 0.008893338 -0.24208851 -0.12590852 -0.2788579 -0.13319907 -0.15711409
-0.2964311 -0.3700146 -0.21214513 -0.13844982 -0.22316512 0.0028134072 -0.12801635 -0.13088517
-0.060471002 -0.15719837 -0.13193321 -0.14180794 -0.3693534 -0.082724825 -0.11925346 0.09681752
-0.31332195 0.10827548 -0.21965694 -0.24944629 -0.12319688 0.1429633 -0.26717257 -0.16172723
-0.37957326 -0.055412997 -0.16010566 -0.028126126 -0.15050109 -0.082502484 -0.13413027 -0.20645896
-0.20336874 -0.3252937 -0.14990889 -0.2627239 -0.10257486 -0.17210546 -0.4357682 -0.28867778
-0.086763784 -0.14664848 -0.11522393 -0.24091958 -0.16041371 0.058818378 -0.17024761 -0.021271985
-0.15691513 -0.07541466 0.00030353357 -0.084391765 -0.08416053 -0.15537156 -0.26899186 -0.18795793
-0.04752031 -0.1511668 -0.24046807 -0.11776488 -0.05679076 -0.2558641 -0.0006823557 -0.16455531
-0.20322481 -0.19594008 -0.20394976 -0.14398502 -0.20203467 -0.11524404 -0.33024904 0.031252336
0.035813384 -0.40644914 -0.16190304 -0.2940305 -0.2110336 -0.20133959 0.048400134 -0.06870178
-0.2524522 -0.13652393 -0.492103 0.13733114 -0.2732136 -0.13819292 -0.21568307 -0.16086139
-0.07992815 -0.2525112 -0.057187494 -0.1813641 -0.076620154 -0.08678128 -0.1249608 -0.08060381
-0.0414182 -0.22790699 -0.23314008 -0.0924458 -0.30136696 -0.08259153 -0.22059505 -0.2417248
-0.14420472 -0.09368753 -0.2669859 -0.00041125438 0.09783637 -0.049979553 -0.09798554 -0.25851968
-0.16587642 -0.33797935 -0.054321695 -0.23100235 -0.32061553 -0.030504849 -0.2977119 -0.07371055
-0.05712341 -0.12800029 -0.1247088 0.13566302 -0.007089045 -0.28078365 0.029555187 -0.11705566
0.03552563 -0.17603204 -0.16223438 -0.0036854183 -0.23304684 -0.28872672 -0.12069379 -0.41332024
-0.4319276 -0.06539561 -0.29512453 -0.043583125 -0.18530208 -0.09125406 -0.21697083 -0.11646489
-0.1335218 0.050760616 -0.056857485 -0.203882 -0.185132 0.06026972 -0.26032665 -0.23334773
-0.039410867 -0.23877808 0.03475668 -0.21217081 0.092102565 -0.33393115 -0.14174347 -0.08403866
-0.23773013 0.032891694 0.038552005 -0.0033958605 -0.28952178 -0.27234638 -0.10611652 -0.056230582
-0.07854507 -0.2849593 -0.35728675 -0.31007558 -0.17253663 -0.39281538 -0.20405054 -0.16095236
-0.2352517 -0.16556652 -0.09776122 -0.1304514 -0.10943333 -0.13539745 -0.31584564 -0.11686629
0.03795345 -0.11301339 -0.25822958 -0.14854088 -0.20626834 -0.13213535 -0.26930016 -0.081878185
-0.15996987 -0.050742332 -0.21838197 -0.10233502 -0.0850996 -0.2095421 -0.20206966 -0.05134563
-0.03988053 -0.14697124 -0.32251152 -0.09349042 -0.2815828 -0.23248853 -0.17126115 0.03833279
-0.20470022 -0.28925946 -0.139261 0.105663024 -0.32842752 -0.3452014 -0.16732566 -0.15085715
-0.14117599 -0.3540283 -0.22251402 0.0790031 0.034355592 -0.26239902 -0.3362175 -0.28117812
-0.064483814 -0.26939952 -0.11876936 -0.11383861 -0.09626475 -0.16695818 -0.124232784 -0.09053638
-0.119232826 -0.13722861 -0.34224936 -0.17182168 -0.21183693 -0.04748142 -0.40659478 -0.38644147
00000000: f1d9 31bd d18b 3dbd 457b 75be 8e37 a6be
00000010: 0213 36be 0198 07bd 7c80 fabe 99a9 36be
00000020: ee67 8fbd 3dc4 a8bd 5db5 113c 0de6 77be
00000030: 2aee 00be 76c6 8ebe 5665 08be 84e2 20be
00000040: d1c5 97be 8e72 bdbe 933c 59be cac5 0dbe
00000050: 6685 64be 2461 383b b816 03be c306 06be
00000060: 71b0 77bd 9cf8 20be 8019 07be 1a36 11be
00000070: e41b bdbe a26b a9bd 283b f4bd 4448 c63d
00000080: bc6b a0be 89bf dd3d c0ed 60be d96e 7fbe
00000090: a54e fcbd f964 123e d8ca 88be d39b 25be
000000a0: 6d57 c2be bdf8 62bd bdf2 23be c368 e6bc
000000b0: f51c 1abe 10f7 a8bd 7259 09be fa69 53be
000000c0: e53f 50be e58c a6be b781 19be bf83 86be
000000d0: c512 d2bd 6a3c 30be 021d dfbe 93cd 93be
000000e0: 36b1 b1bd 052b 16be 86fa ebbd 9fb3 76be
000000f0: 7e43 24be 8aeb 703d 6455 2ebe 9642 aebc
00000100: 5cae 20be 0073 9abd 9623 9f39 97d5 acbd
00000110: 5b5c acbd b919 1fbe 4db9 89be 0b78 40be
00000120: a8a4 42bd 78cb 1abe 433d 76be b72e f1bd
00000130: 6e9d 68bd 9f00 83be 1ee0 32ba 3081 28be
00000140: 2a1a 50be 84a4 48be 35d8 50be cf70 13be
00000150: 2de2 4ebe 1105 ecbd 6716 a9be 7302 003d
00000160: 0eb1 123d 1a1a d0be e9c9 25be 2a8b 96be
00000170: 3119 58be f72b 4ebe 383f 463d 85b3 8cbd
00000180: 6a41 81be eecc 0bbe edf4 fbbe 89a0 0c3e
00000190: a7e2 8bbe 7282 0dbe 06dc 5cbe d9b8 24be
000001a0: 5fb1 a3bd 2649 81be 6f3d 6abd 83b7 39be
000001b0: 07eb 9cbd 62ba b1bd 73eb ffbd 9c13 a5bd
000001c0: 21a6 29bd 7360 69be 46bc 6ebe 3954 bdbd
000001d0: c54c 9abe c025 a9bd abe3 61be b586 77be
000001e0: 67aa 13be 3fdf bfbd 60b2 88be a19d d7b9
000001f0: 6f5e c83d 5cb7 4cbd a5ac c8bd b15c 84be
00000200: 82db 29be a10b adbe 6d80 5ebd e18b 6cbe
00000210: b827 a4be 4ee5 f9bc b26d 98be 8ff5 96bd
00000220: 3dfa 69bd 8212 03be 5467 ffbd 3feb 0a3e
00000230: 384b e8bb e0c2 8fbe b81d f23c e1ba efbd
00000240: 5383 113d be41 34be c520 26be 0f87 71bb
00000250: d5a3 6ebe fdd3 93be 4e2e f7bd b69e d3be
00000260: 9d25 ddbe 22ee 85bd 901a 97be 3884 32bd
00000270: d4bf 3dbe 69e3 babd 9a2d 5ebe 2585 eebd
00000280: f0b9 08be 5dea 4f3d 65e3 68bd 71c6 50be
00000290: 3e93 3dbe 62dd 763d 8949 85be b5f2 6ebe
000002a0: 4a6d 21bd 3e82 74be 055d 0e3d 4e43 59be
000002b0: 45a0 bc3d 06f9 aabe 3325 11be 761c acbd
000002c0: 876f 73be 71b9 063d b5e8 1d3d 168d 5ebb
000002d0: 333c 94be fc70 8bbe 9e53 d9bd 0a52 66bd
000002e0: 3ddc a0bd 2fe6 91be 4aee b6be 3ac2 9ebe
000002f0: 71ad 30be 191f c9be a0f2 50be b2d0 24be
00000300: d2e5 70be 458a 29be 0937 c8bd 0d95 05be
00000310: 951e e0bd a1a5 0abe 85b6 a1be 9857 efbd
00000320: 1475 1b3d 9073 e7bd ab36 84be 1a1b 18be
00000330: 0238 53be 7d4e 07be b6e1 89be c0af a7bd
00000340: 24cf 23be 31d7 4fbd 869f 5fbe 0695 d1bd
00000350: b348 aebd 3492 56be 59eb 4ebe cc4f 52bd
00000360: c459 23bd a17f 16be 3b20 a5be e877 bfbd
00000370: 9f2b 90be 7911 6ebe 155f 2fbe d802 1d3d
00000380: ef9c 51be d119 94be 709a 0ebe db65 d83d
00000390: a727 a8be 3dbe b0be 6b57 2bbe 4c7a 1abe
000003a0: 7090 10be 3343 b5be b7da 63be 61cc a13d
000003b0: 73b8 0c3d 2a59 86be b324 acbe 94f6 8fbe
000003c0: 1710 84bd bcee 89be 5a3d f3bd 3824 e9bd
000003d0: 7426 c5bd 16f7 2abe c26d febd 236b b9bd
000003e0: 5730 f4bd a885 0cbe 4f3b afbe 06f2 2fbe
000003f0: c8eb 58be e17b 42bd 312d d0be a8db c5be

weight f4 [128, 256]
-0.1043239 0.08097785 -0.030526618 0.14230312 -0.13826832 -0.043926325 -0.05676442 0.13959356
0.12068703 -0.024651999 -0.04653522 -0.08300761 -0.2047517 -0.050518494 -0.114854194 0.08179612
-0.062204383 0.024649363 0.082790084 -0.0031338872 -0.09381361 0.06895764 -0.08054531 0.043656457
0.07160499 -0.16610411 -0.02938534 -0.004323146 0.10656934 0.0033118995 0.041617244 -0.0007612149
-0.043611694 -0.103547 0.054429647 0.095112614 0.007063016 0.0062498106 -0.0077062156 -0.12692153
0.095283456 0.13766542 0.025504822 0.051332653 0.06592015 0.031325426 0.020902043 -0.08394915
0.07701051 0.04393369 -0.082898624 -0.05440528 -0.22521192 -0.06458192 -0.10974797 0.17115016
-0.18561502 0.044273153 0.04225475 -0.037950855 0.060944073 -0.011666203 -0.07760029 0.056034684
0.005996849 0.056902885 -0.09625849 -0.00013702754 0.023410557 -0.088600166 0.06830327 0.087362655
-0.014765783 -0.075399555 -0.051378284 -0.097247966 -0.013796625 0.014400707 -0.06507468 0.0455965
-0.04526408 -0.100086085 -0.033834666 -0.1564912 0.15053669 0.021973718 0.13553007 0.3075403
-0.03002629 0.21618736 0.059048153 0.11620229 -0.028216526 -0.05849066 0.02877067 -0.47508943
-0.009208621 -0.00843708 0.31604055 -0.030714061 -0.09842273 -0.07825399 0.1876087 0.07945498
-0.10374076 -0.14029603 0.06543304 0.01570419 -0.13845536 -0.008152362 0.025024736 0.04186977
-0.11550176 0.106525354 -0.012611624 -0.06273897 0.0062584667 0.048405234 0.15884274 0.04782326
0.10845918 -0.08481575 -0.10852307 0.024264194 0.030334648 0.018302938 -0.19380146 0.11919392
0.3038895 -0.09763256 0.08750431 0.28907543 -0.07124194 -0.0073317257 0.34134194 -0.07979837
0.17413518 0.006421395 -0.5514397 -0.102030136 0.051844306 0.00026922088 0.021769552 -0.04848735
-1.187385 -0.033664398 -0.16885965 0.20014049 0.10340569 0.01809158 -0.0121701695 0.013536298
-0.065549046 -0.0037429384 -0.008394014 0.044964224 -0.047588557 -0.09294002 0.085775785 -0.047393147
0.22390404 -0.0967808 0.1462225 -0.031337023 0.042979 0.09328388 -0.24164146 -0.016879454
0.12591244 -0.24964479 0.12932147 -0.06431908 -0.19168513 0.05445193 -7.385842e-05 -0.05432867
-0.3058913 -0.17326595 -0.091240205 -0.081328064 -0.057822287 0.070241585 -0.019797966 0.12161666
-0.08620058 0.13073911 0.07701837 0.0018613904 -0.17024541 -0.035778757 -0.11576647 -0.332139
-0.00063851784 0.1450336 0.07862289 -0.03944296 0.072332546 0.036634862 -0.102639474 0.12329971
0.06845682 -0.014338926 0.01945032 -0.12113202 0.036281634 -0.10500704 -0.13808633 0.026764063
-0.05149843 0.00050535373 0.053588428 0.020280328 -0.119420715 -0.043970857 -0.13055255 -0.06521301
-0.09295077 0.17365311 0.029628616 0.11520593 0.022176275 0.16480541 -0.060930084 0.021729898
-0.11824195 -0.066365585 -0.14261577 0.030776203 -0.096908756 0.035079535 -0.084355615 0.04097074
-0.022714516 0.4262621 -0.05564058 0.074546464 -0.16396274 0.1325482 0.29825452 0.10481609
0.124285154 -0.014765554 0.17447348 -0.06415765 -0.020128652 0.4375196 0.108875714 0.20232084
-0.007108104 0.013331932 0.071319595 0.10484393 0.04690419 0.027756505 0.15895358 0.11318583
00000000: c5a7 d5bd b7d7 a53d f512 fabc e9b7 113e
00000010: 3696 0dbe 17ec 33bd cf81 68bd 9df1 0e3e
00000020: c32a f73d fdf2 c9bc b79b 3ebd e5ff a9bd
00000030: 6eaa 51be 7bec 4ebd ad38 ebbd b984 a73d
00000040: 06ca 7ebd 76ed c93c d98d a93d e761 4dbb
00000050: 5a21 c0bd aa39 8d3d f1f4 a4bd 1dd1 323d
00000060: a3a5 923d 3217 2abe 86b9 f0bc 2da9 8dbb
00000070: 0741 da3d 740c 593b d876 2a3d 448c 47ba
00000080: 2da2 32bd 7310 d4bd 9ff1 5e3d 67ca c23d
00000090: df70 e73b 36cb cc3b 6c84 fcbb b8f7 01be
000000a0: f923 c33d 2af8 0c3e 7def d03c 3042 523d
000000b0: 2501 873d 174f 003d c33a ab3c 88ed abbd
000000c0: b0b7 9d3d d0f3 333d c1c6 a9bd 12d8 5ebd
000000d0: f49d 66be 8743 84bd 8bc3 e0bd fd41 2f3e
000000e0: dd11 3ebe c457 353d 5113 2d3d 5b72 1bbd
000000f0: 7ea0 793d 9a23 3fbc e7ec 9ebd a084 653d
00000100: 3781 c43b 0013 693d 2c23 c5bd 0daf 0fb9
00000110: 7fc7 bf3c 0174 b5bd 96e2 8b3d 31eb b23d
00000120: 2fec 71bc 156b 9abd 0972 52bd f129 c7bd
00000130: 3d0b 62bc f1f0 6b3c e045 85bd 65c3 3a3d
00000140: d466 39bd eff9 ccbd 3896 0abd 3b3f 20be
00000150: 4a26 1a3e 3a02 b43c 65c8 0a3e ec75 9d3e
00000160: b2f9 f5bc 3860 5d3e 7adc 713d 77fb ed3d
00000170: 5826 e7bc e793 6fbd 78b0 eb3c ec3e f3be
00000180: c2df 16bc ae3b 0abc 11d0 a13e 0e9c fbbc
00000190: db91 c9bd a143 a0bd 7f1c 403e 4bb9 a23d
000001a0: 0976 d4bd c3a9 0fbe c201 863d 13a6 803c
000001b0: 3ec7 0dbe 7c91 05bc ad00 cd3c a37f 2b3d
000001c0: 308c ecbd f729 da3d fca0 4ebc 4a7d 80bd
000001d0: d313 cd3b 9144 463d aca7 223e 53e2 433d
000001e0: d91f de3d e1b3 adbd 5841 debd b4c5 c63c
000001f0: 5e80 f83c 0bf0 953c e473 46be f11b f43d
00000200: 6897 9b3e 94f3 c7bd 7635 b33d b201 943e
00000210: 4be7 91bd f93e f0bb 5fc4 ae3e 546d a3bd
00000220: 7e50 323e 916a d23b 272b 0dbf 2df5 d0bd
00000230: b25a 543d 3726 8d39 0f56 b23c ac9a 46bd
00000240: 3bfc 97bf aee3 09bd 8be9 2cbe a1f1 4c3e
00000250: 5dc6 d33d cb34 943c 6465 47bc 59c7 5d3c
00000260: 943e 86bd 164c 75bb 0c87 09bc 682c 383d
00000270: 38ec 42bd 5657 bebd 37ab af3d 511f 42bd
00000280: 1a47 653e 0335 c6bd 5abb 153e 405b 00bd
00000290: bf0a 303d 9e0b bf3d dc70 77be c846 8abc
000002a0: 31ef 003e e2a2 7fbe d96c 043e b9b9 83bd
000002b0: 1b49 44be fd08 5f3d 70e4 9ab8 bd87 5ebd
000002c0: c99d 9cbe a16c 31be 25dc babd 548f a6bd
000002d0: 10d7 6cbd d2da 8f3d 582f a2bc 2812 f93d
000002e0: ee89 b0bd 79e0 053e cfbb 9d3d e6f9 f33a
000002f0: d054 2ebe bf8c 12bd f916 edbd 1f0e aabe
00000300: 3562 27ba b083 143e 0a05 a13d f18e 21bd
00000310: 1623 943d 700e 163d a534 d2bd 8f84 fc3d
00000320: 1733 8c3d d1ed 6abc 4756 9f3c 1114 f8bd
00000330: 0d9c 143d ee0d d7bd 8166 0dbe 4f40 db3c
00000340: 05f0 52bd b779 043a 8a7f 5b3d ee22 a63c
00000350: d992 f4bd c91a 34bd 91af 05be 668e 85bd
00000360: f95c bebd 1fd2 313e b6b7 f23c 16f1 eb3d
00000370: 05ab b53c c0c2 283e d391 79bd e602 b23c
00000380: d628 f2bd aeea 87bd de09 12be 601e fc3c
00000390: 1978 c6bd 8faf 0f3d a3c2 acbd efd0 273d
000003a0: cb13 babc 073f da3e 60e7 63bd d1ab 983d
000003b0: d9e5 27be b7ba 073e d1b4 983e d1a9 d63d
000003c0: 3789 fe3d 39eb 71bc 2da9 323e 1665 83bd
000003d0: d8e4 a4bc 9202 e03e 3bfa de3d 322d 4f3e
000003e0: 19eb e8bb 2d6e 5a3c 0210 923d 6ab8 d63d
000003f0: 9c1e 403d 9c61 e33c bac4 223e f9cd e73d

bias f4 [128]
-0.13556302 -0.22780572 -0.4423643 -0.22044392 -0.19397117 -0.074703306 -0.12399313 -0.14439955
-0.25911573 -0.2153201 -0.1090292 -0.14393091 -0.237013 -0.19534653 -0.11049363 -0.15551235
-0.08485232 0.10732356 -0.19496551 -0.18282002 -0.1785797 -0.35924584 -0.14630525 -0.16974266
-0.107678965 -0.099613756 -0.1708894 -0.09062307 -0.4334948 -0.12384213 -0.18261485 -0.012050101
-0.14025761 -0.100156516 -0.038021237 -0.09296684 -0.2614433 -0.20361254 -0.12927406 -0.3900885
-0.1009232 -0.19360909 -0.1516061 -0.23211609 -0.07403248 -0.21951921 -0.24402738 -0.18691045
-0.10152925 -0.1217535 0.17944656 -0.15399048 -0.18341011 -0.3125408 -0.2471972 -0.14744548
-0.20625906 -0.12855296 -0.10879998 -0.29473367 -0.14534749 -0.18501781 -0.16335198 -0.13827968
-0.048535768 -0.20060015 -0.29494014 -0.17900886 -0.25073764 -0.112475514 -0.09206671 -0.13265194
-0.23642217 -0.099783085 -0.08644593 -0.17613254 -0.15091053 -0.25801814 -0.2884296 -0.113616735
-0.14387362 -0.01924063 -0.16881427 -0.43327302 -0.1496376 -0.23414552 -0.32100078 -0.23291534
-0.23127462 -0.24396396 -0.18250239 -0.15912054 -0.28896165 -0.20419666 -0.09850098 -0.40499982
-0.087142624 -0.34341967 0.041845676 -0.11954516 -0.19615327 -0.05315905 -0.0957827 -0.34722415
-0.21382357 -0.37474033 -0.20192856 -0.11241458 -0.14502642 -0.2188421 -0.013166688 -0.18887909
-0.015063705 -0.11951222 -0.123434946 -0.37873042 -0.24258919 -0.3527466 -0.06345458 -0.14264633
-0.07523665 -0.16837084 -0.07491427 -0.15385401 -0.18352327 -0.19824943 -0.34652206 -0.13010757
00000000: 08d1 0abe e745 69be 937d e2be 0dbc 61be
00000010: 61a0 46be 0cfe 98bd 1cf0 fdbd 7add 13be
00000020: d1aa 84be df7c 5cbe b44a dfbd a062 13be
00000030: 89b3 72be ec08 48be 7c4a e2bd a13e 1fbe
00000040: 0ec7 adbd 74cc db3d 0aa5 47be 2c35 3bbe
00000050: 99dd 36be 12ef b7be 0bd1 15be 05d1 2dbe
00000060: ca86 dcbd 4c02 ccbd a2fd 2ebe 9798 b9bd
00000070: 08f3 ddbe f1a0 fdbd 63ff 3abe c96d 45bc
00000080: b19f 0fbe dc1e cdbd 28bc 1bbd 6665 bebd
00000090: e5db 85be ce7f 50be 6b60 04be aeb9 c7be
000000a0: d3b0 cebd 7641 46be a13e 1bbe d7af 6dbe
000000b0: 579e 97bd a5c9 60be 50e2 79be 7465 3fbe
000000c0: 91ee cfbd e659 f9bd d7c0 373e aeaf 1dbe
000000d0: dccf 3bbe 5905 a0be 4321 7dbe f3fb 16be
000000e0: 9335 53be 63a3 03be 86d2 debd 55e7 96be
000000f0: f9d5 14be 4f75 3dbe be45 27be 3099 0dbe
00000100: 71cd 46bd 206a 4dbe 6502 97be 194e 37be
00000110: af60 80be 9059 e6bd 798d bcbd e9d5 07be
00000120: a718 72be 135b ccbd 900a b1bd 175c 34be
00000130: 4a88 1abe f41a 84be 0bad 93be e4af e8bd
00000140: 9b53 13be 879e 9dbc a6dd 2cbe f6d5 ddbe
00000150: 993a 19be d8c3 6fbe 375a a4be 5c81 6ebe
00000160: 41d3 6cbe b0d1 79be e8e1 3abe 7ff0 22be
00000170: c8f2 93be ee18 51be e2ba c9bd 235c cfbe
00000180: d577 b2bd b4d4 afbe 5f66 2b3d 18d4 f4bd
00000190: 67dc 48be 4ebd 59bd b829 c4bd 5dc7 b1be
000001a0: 91f4 5abe f7dd bfbe 5cc6 4ebe 9e39 e6bd
000001b0: ce81 14be 2518 60be 18b9 57bc 8569 41be
000001c0: c2cd 76bc d3c2 f4bd 76cb fcbd f4e8 c1be
000001d0: 4d69 78be 349b b4be 7af4 81bd e111 12be
000001e0: ac15 9abd 6869 2cbe a76c 99bd e88b 1dbe
000001f0: 86ed 3bbe e601 4bbe 576b b1be eb3a 05be

weight f4 [12, 128]
0.028399494 -0.02395101 -0.00766296 0.08209972 0.050450962 0.00034791068 0.016007012 0.058235973
0.000383838 0.041120138 -0.0043451707 0.012649748 0.02209062 0.074873246 0.013970607 -0.019307218
-0.053014595 -0.0007291542 0.014544934 0.0037458644 -0.078776285 0.015593266 -0.0087923985 0.04206866
0.02657604 0.049165916 0.007662302 -0.01207253 0.0049836994 -0.0030845923 -0.0099415565 0.04961391
0.019983 -0.06390841 0.027092693 0.021290923 0.009330268 -0.037188463 -0.042049117 -0.01072573
0.04797538 -0.028519904 0.08949565 -0.015806736 -0.028791035 -0.01435808 0.033753175 -0.02069396
0.017115649 -0.02186532 -0.074132025 0.0014795411 -0.035545252 -0.0062019518 -0.11786373 -0.008440491
0.003807113 -0.0119670285 0.0081690345 -0.007982642 -0.038159665 0.027302999 0.01676334 0.00060505915
0.011696043 -0.0033331208 -0.01394758 -0.059948355 -0.00953638 -0.02947357 0.029889042 0.0072443592
-0.04394875 -0.015284946 -0.019934416 0.033186745 0.0022445787 0.06146889 -0.101725005 -0.035567373
-0.007711269 0.021550253 0.020398054 0.023028856 -0.048034955 0.01452188 -0.012469318 -0.04723542
-0.08709701 -0.02333386 0.015128151 -0.006713329 -0.07384198 0.01937545 -0.050158195 0.046940938
-0.004187121 -0.045408517 -0.026536293 -0.0026829932 0.017445387 0.04890767 -0.00037929695 0.043004513
-0.020925216 0.041625917 -0.0048366073 0.011950392 -0.060326237 -0.0124480445 -0.008107968 -0.020043492
0.013210674 0.03482502 -0.004442522 0.055834703 -0.012687807 0.12785633 0.013073358 0.013396119
0.01647192 0.0029373986 -0.032877684 0.014116251 -0.081841916 0.021560475 -0.01034798 0.018549392
0.07309207 -0.0019614834 -0.00041130037 -0.06227774 0.029746726 -0.0046170307 0.025125545 -0.108793505
-0.0852482 -0.107634775 -0.011486324 0.018071791 0.03650739 0.0650598 0.0037515762 -0.013380679
0.08685634 0.012374763 0.002487097 0.024943145 -0.0041987593 0.0046850513 0.011540837 0.048135065
-0.11594887 -0.028407687 -0.06321041 0.01275531 -0.0016049867 0.03435656 0.011153277 0.026548496
-0.023859115 -0.006720302 -0.0032226231 0.018404784 0.030451674 0.0020028134 0.07702304 -0.020243803
0.059139457 0.058077745 0.0042484654 -0.011616872 -0.02841283 0.026168074 0.006844189 0.06390823
-0.031280626 0.0026114741 -0.035205882 0.01550376 0.033929773 0.020081745 -0.026691455 -0.008764951
0.0042568324 -0.023102468 0.014883457 0.056514677 0.01411079 0.0039038137 0.04702186 -0.01494287
-0.056544587 0.013321179 -0.039453 0.018118042 -0.0156885 -0.009520377 0.010005516 0.018213747
-0.05780175 0.006733662 0.004806801 0.00025906746 -0.015738996 -0.0007439845 -0.046470612 -0.029766405
-0.012309058 -0.057946723 -0.0027130137 0.15611054 -0.05439171 0.012600532 -0.0005845294 0.018925058
0.038539685 0.009576539 0.0021467688 -0.007824051 0.008998482 0.027866906 0.05358115 -0.024986712
-0.06597143 -0.016935898 0.01676744 -0.04386601 -0.013754529 0.046141353 -0.059219215 0.0060356758
-0.0027371615 0.014303704 0.01903875 0.005589448 -0.044189148 0.0010909686 0.04715001 0.06132473
0.082319506 0.038726576 0.013764371 -0.022676835 -0.012654458 -0.049365014 -0.015937665 -0.010001842
-0.002078458 0.18801105 0.0005496964 0.0073073097 -0.05304533 -0.019141773 -0.018107325 -0.01169684
00000000: 0ea6 e83c e934 c4bc 9119 fbbb e623 a83d
00000010: aba5 4e3d c867 b639 2321 833c d888 6e3d
00000020: dd3d c939 976d 283d ef61 8ebb e340 4f3c
00000030: 63f7 b43c 2557 993d f9e4 643c 2c2a 9ebc
00000040: d525 59bd b624 3fba e04d 6e3c 2d7d 753b
00000050: 7655 a1bd e67a 7f3c fe0d 10bc 3050 2c3d
00000060: ffb5 d93c 3362 493d 0c14 fb3b dccb 45bc
00000070: 4d4e a33b df26 4abb e9e1 22bc f537 4b3d
00000080: 63b3 a33c 6ae2 82bd 7ff1 dd3c 4d6a ae3c
00000090: fbdd 183c ee52 18bd b23b 2cbd f9ba 2fbc
000000a0: d581 443d 93a2 e9bc 7f49 b73d 217d 81bc
000000b0: 2ddb ebbc 273e 6bbc c540 0a3d 6186 a9bc
000000c0: 1e36 8c3c e61e b3bc 88d2 97bd 29ed c13a
000000d0: e697 11bd be39 cbbb 8a62 f1bd fc49 0abc
000000e0: c280 793b 5b11 44bc 6ad7 053c a1c9 02bc
000000f0: 4f4d 1cbd 8aaa df3c 4653 893c d59c 1e3a
00000100: c3a0 3f3c 7d70 5abb 6484 64bc 688c 75bd
00000110: 7a3e 1cbc 8e72 f1bc ddd9 f43c 1762 ed3b
00000120: 9b03 34bd b66d 7abc 804d a3bc d3ee 073d
00000130: c819 133b cec6 7b3d 3355 d0bd 18af 11bd
00000140: d0ae fcbb 288a b03c d219 a73c 03a7 bc3c
00000150: 4dc0 44bd 2eed 6d3c 1c4c 4cbc ee79 41bd
00000160: eb5f b2bd a726 bfbc 10dc 773c 7cfb dbbb
00000170: 773a 97bd 44b9 9e3c ae72 4dbd 2445 403d
00000180: 1e34 89bb 48fe 39bd a462 d9bc 28d5 2fbb
00000190: a1e9 8e3c 6953 483d 60dc c6b9 8025 303d
000001a0: 5c6b abbc f07f 2a3d 677c 9ebb 94cb 433c
000001b0: a518 77bd e2f2 4bbc 48d7 04bc 4032 a4bc
000001c0: 9571 583c aea4 0e3d 9392 91bb eeb2 643d
000001d0: 85e0 4fbc c5ec 023e a331 563c 657b 5b3c
000001e0: 1ff0 863c 5f81 403b c0aa 06bd d947 673c
000001f0: bc9c a7bd 989f b03c 938a 29bc e5f4 973c
00000200: 4cb1 953d 3b8c 00bb cda3 d7b9 f216 7fbd
00000210: 68af f33c 764a 97bb 16d4 cd3c 21cf debd
00000220: 9c96 aebd 9f6f dcbd 2231 3cbc 4b0b 943c
00000230: c688 153d 133e 853d 01dd 753b a33a 5bbc
00000240: bde1 b13d 85bf 4a3c 90fe 223b 9155 cc3c
00000250: bf95 89bb 0f85 993b c715 3d3c 4629 453d
00000260: 9a76 edbd 3db7 e8bc 7674 81bd a6fb 503c
00000270: 6b5e d2ba 77b9 0c3d 3cbc 363c 3b7c d93c
00000280: 3174 c3bc fb35 dcbb a532 53bb a1c5 963c
00000290: ca75 f93c a241 033b 41be 9d3d 55d6 a5bc
000002a0: 373c 723d eee2 6d3d b636 8b3b b154 3ebc
000002b0: 06c2 e8bc 6e5e d63c 3845 e03b 51e2 823d
000002c0: 1d20 00bd 4425 2b3b 0b34 10bd 7c03 7e3c
000002d0: f2f9 0a3d 7982 a43c 0aa8 dabc de9a 0fbc
000002e0: e67c 8b3b 6341 bdbc bed9 733c ef7b 673d
000002f0: f130 673c 20d7 7f3b fe99 403d f0d2 74bc
00000300: 4c9b 67bd 1341 5a3c 7899 21bd 4a6c 943c
00000310: 2b85 80bc 5bfb 1bbc 2dee 233c ff34 953c
00000320: 87c1 6cbd 0da6 dc3b 5f82 9d3b 72d3 8739
00000330: 11ef 80bc f407 43ba f857 3ebd add8 f3bc
00000340: eeab 49bc 8b59 6dbd d1cc 31bb 71db 1f3e
00000350: d7c9 5ebd 7672 4e3c 1b3b 19ba b908 9b3c
00000360: cadb 1d3d eae6 1c3c ceb0 0c3b 7330 00bc
00000370: 5e6e 133c 2349 e43c e877 5b3d efb0 ccbc
00000380: 071c 87bd 27bd 8abc df5b 893c d8ac 33bd
00000390: ad5a 61bc b7fe 3c3d d98f 72bd ebc6 c53b
000003a0: f361 33bb 155a 6a3c 27f7 9b3c b027 b73b
000003b0: aeff 34bd d5fe 8e3a 5e20 413d a42f 7b3d
000003c0: 2197 a83d c29f 1e3d f583 613c c5c4 b9bc
000003d0: a554 4fbc f832 4abd b58f 82bc c4de 23bc
000003e0: bd36 08bb f885 403e 8019 103a 2872 ef3b
000003f0: 0f46 59bd 35cf 9cbc d055 94bc 1aa4 3fbc

bias f4 [12]
-0.1621801 -0.034588248 -0.12293756 0.121223666 -0.110448696 -0.26131964 -0.19626561 0.06546221
0.014483718 0.016748456 -0.026016494 0.07742186
00000000: 8a12 26be 68ac 0dbd b0c6 fbbd 1d44 f83d
00000010: ed32 e2bd b0cb 85be daf9 48be 0d11 863d
00000020: 1e4d 6d3c 0f34 893c 8b20 d5bc 5a8f 9e3d
